FuturesML Continuum/trading_pipeline/lstm_model.pth (torch, 209826 bytes, 9 tensors)

lstm.weight_ih_l0 f4 [256, 5]
00000000: ad9f a5bc e225 80bc a1d2 153e e8b1 993d
00000010: 4edb 1b3e 07e1 6a3e ba70 b5bd 68e7 2e3d
00000020: 0ba5 073e 2ccf 743d c484 653d c0b4 483e
00000030: 78e5 1fbe a9c1 aabd cc1f 213d d900 d33d
00000040: d577 55be 8149 173c c840 d5bc 7fa6 fc3c
00000050: 2b30 f4bd 695f 3dbe 521e bebc c272 4c3d
00000060: a39d ddbc 91c8 08be d25a 4cbd bd55 b4bd
00000070: a341 57bd 02f4 88bb 0699 8abd 6b26 a9be
00000080: 57cf 173e 89c7 16bc 9cf8 96bd 8f60 edbd
00000090: 2137 8b3e 9c56 9d3d f866 033d 0add 0a3d
000000a0: 9f90 d4bd 1bce 563e 0f82 2fbd 516a 923d
000000b0: 095a 883d 3ecd 143d 042b bcbd e731 a43d
000000c0: fcf9 ec3d 8aad d13d da98 73bd e7b2 1e3e
000000d0: e5e8 9abd 37c2 d8bc 73bf e5bd 7945 043e
000000e0: 94ac 05be 5326 5abd 7347 bd3d 5777 8cbd
000000f0: 6d69 1b3e 0eba 4cbe 2c1f 983d 1429 d63d
00000100: 2996 de3d 236a 613c 6800 73ba c7a0 843d
00000110: cbac bfbd f8d6 93bd 66a5 eabd 3cd2 3bbd
00000120: 0d64 073e b48d d3bd aa4a 133e cc73 2cbe
00000130: 4b4a 373d 3fa3 79bd a84a cf3d 5bcf 00be
00000140: c83c 393c b10a 0bbd 9715 43bd dcec 053c
00000150: 649d e3bd 605b 833c 2f05 2cbe 2208 7c39
00000160: 773a de3d 6ffe 763d 4b30 adbd 0b33 b03c
00000170: 3354 263d 7a52 23bc 2916 d0bd a09a a73c
00000180: 39a3 edbd 2108 fc3d 12b9 a1ba e786 563d
00000190: 91f3 093e af63 abbd 5caa b23d 8338 5fbd
000001a0: 5d04 c23d 45a8 88bd 8055 01be 83bd cc3d
000001b0: d3c5 38bc 6325 f3bd e26f 933a 5853 92be
000001c0: c477 253e caaf bc3d 8cc5 98bd 3417 d43b
000001d0: 33a7 ddbd dd13 b33d 49cc 4cbd e245 15bd
000001e0: 63bb 52bd 212e 2e3e d969 f5bd 3233 5cbd
000001f0: e619 b73c aca1 b13c 7a5c 79be d174 633d
00000200: b1c1 c1bd 2b16 813c 90dd 563e 631b b9bd
00000210: 284a 593d 3898 18bd 7332 883d 35e5 05be
00000220: 5275 2f3e 318b c23d 2d37 d6bd ab4a bc3c
00000230: 6a18 473d 4e6c 84be e0ad 9a3d 97ee 88bc
00000240: 19c6 203d dc14 debc 30df 2b3e 9ff0 a4bd
00000250: 4348 1ebb 1d7b a0bc f748 90bd b8dc 133d
00000260: 66dc 1fbd 06c8 f1bd 5625 2cbd f375 223d
00000270: 575f 4fbe 81e5 433e 4317 50bd fca8 86bd
00000280: a4b3 8ebd da88 b8bd 8e70 7b3d c58d 70bd
00000290: 6614 763c d56c f5bc 77d7 d3bd d498 c63d
000002a0: 3049 893d c8ff 863d fe8c d0bc 4492 b5be
000002b0: b6c2 e43d bf52 06bb 248c 513c ebef bcbd
000002c0: c74f a7bd a1dd aebd f19a 9f3d 292f fb3d
000002d0: eca7 c53c fe4d 26bc 9c82 cc3c 3f67 b5bd
000002e0: b637 93bd f288 27bc 210f eebd 4eb7 043e
000002f0: e497 a9bd ffeb e7bc 076a 5bbd 8a6f f23d
00000300: 9f26 983d 0f64 ffbd c26c 6ebc 8ccd f33d
00000310: f8e7 99bd 646e 413e 29fa 1a3e 6e44 10be
00000320: 06e6 1d3d a036 28bd 7635 fbbd 30eb d2bd
00000330: cc3f b0bd 94e5 b03d 6e6d c8bd 3f4f afbb
00000340: e9a5 92bd 9be5 853d 88ae 2ebe d92b 7bbe
00000350: 18ae 063d ea05 a5bd fc04 7bbe 2747 c43a
00000360: 82cb 21be 6734 d0bc 4daa b9bd 9ac0 a5bd
00000370: e8d3 88bd e9d3 163e c443 85bd 6f90 d5bd
00000380: 03e0 8cbd b071 68b8 22f4 e8bd 5a13 40bd
00000390: 1c04 c73d edee bebd dd1a 243d 3d0f 1f3d
000003a0: e23a c93c a4ad edbd ec89 08bc 8fca e0bd
000003b0: 54dd 10be fc9d 0ebd 4eb9 10be b2de 5e3c
000003c0: a78c 44bd 87e9 d4bc a797 c6bd 0cdc 573c
000003d0: 7104 a1bd eb91 d13b 86e5 5ebd b81c b93d
000003e0: 833a 0e3e 69d9 abbd dc02 853d 59eb a6bd
000003f0: 5ae8 f7bd dd77 a73c ec5f 823d 63c7 2f3e
-0.02021774 -0.015643064 0.1463113 0.07504636 0.15220377 0.22937404 -0.088593915 0.042701155
0.13246553 0.059767887 0.05603482 0.196002 -0.15614879 -0.08337719 0.039336964 0.10302896
-0.20846494 0.009233833 -0.026031867 0.03084111 -0.1192325 -0.18493427 -0.023207817 0.04991413
-0.027052706 -0.1335776 -0.0498913 -0.08805416 -0.05255283 -0.0041794786 -0.06767468 -0.33037123
0.14825188 -0.009202846 -0.07371637 -0.11590683 0.27190498 0.07682535 0.03208062 0.033902206
-0.10379147 0.2097706 -0.042848643 0.071491845 0.06657798 0.036328547 -0.09187892 0.080173306
0.11571118 0.10238178 -0.059471942 0.15497933 -0.07563952 -0.026459796 -0.11218157 0.12917127
-0.13054115 -0.053259205 0.092421435 -0.068587 0.15176935 -0.19992849 0.074278206 0.10457054
0.108684845 0.013758215 -0.0009269775 0.06475978 -0.093591295 -0.072187364 -0.114573285 -0.045854792
0.1322176 -0.10329762 0.14383951 -0.16841048 0.044748586 -0.0609467 0.101216614 -0.125791
0.011305995 -0.033945743 -0.04762801 0.008174147 -0.11114004 0.016034782 -0.16798852 0.00024035622
0.10850995 0.06030124 -0.08456477 0.021508714 0.040607642 -0.009968394 -0.10160477 0.020459473
-0.11603398 0.12306238 -0.001233848 0.052374747 0.1347182 -0.083686225 0.087239 -0.054497253
0.094734885 -0.0667272 -0.12630272 0.09997084 -0.011277634 -0.11872365 0.0011248554 -0.2857921
0.16158968 0.092132166 -0.07459554 0.0064724926 -0.10822906 0.08744023 -0.04999951 -0.0364436
-0.051448237 0.17009784 -0.119830795 -0.05375976 0.022351217 0.021683536 -0.24351683 0.055531327
-0.09460772 0.01575764 0.20982957 -0.09038427 0.053049237 -0.037254542 0.066502474 -0.13075717
0.17134598 0.09499205 -0.10459743 0.022984823 0.048607267 -0.2586388 0.07552695 -0.016715331
0.03925142 -0.027109556 0.16784358 -0.08053707 -0.0024151958 -0.019589955 -0.07045167 0.036099166
-0.039028548 -0.118057296 -0.042027794 0.039663266 -0.20251213 0.19130518 -0.050803434 -0.065752
-0.069678575 -0.09010477 0.061386637 -0.058728952 0.015019512 -0.029959122 -0.10343831 0.096971184
0.067034125 0.06591755 -0.025457855 -0.35463154 0.11169951 -0.0020496098 0.01278976 -0.09225448
-0.08169513 -0.08538366 0.077932246 0.122648545 0.024127923 -0.010150431 0.024964623 -0.08857583
-0.071883604 -0.010225521 -0.11623979 0.1296055 -0.08280924 -0.028310774 -0.053567912 0.11837681
0.074292414 -0.124702565 -0.014552297 0.11904439 -0.07514948 0.18889767 0.15134491 -0.14088604
0.038549446 -0.04106772 -0.12266056 -0.10298765 -0.08605918 0.086375386 -0.09786497 -0.005350023
-0.07160551 0.065379344 -0.17058766 -0.24528445 0.032880872 -0.08057769 -0.2451362 0.0014974818
-0.15800288 -0.025415612 -0.090656854 -0.080933765 -0.06681043 0.14729275 -0.06507066 -0.10427939
-0.06878664 -5.541899e-05 -0.1137469 -0.046893455 0.09717581 -0.09322915 0.04006468 0.03883289
0.02456421 -0.11605385 -0.008333664 -0.10976135 -0.1414693 -0.034818634 -0.14133188 0.013602899
-0.0479857 -0.02599026 -0.09696894 0.013175022 -0.07862175 0.0063955686 -0.05441811 0.09038681
0.13889508 -0.08391077 0.06494686 -0.08150358 -0.121048644 0.020442897 0.06365952 0.17165904

lstm.weight_hh_l0 f4 [256, 64]
00000000: 40a7 01bc ac77 8ebd 3800 71bd 9e30 cdbd
00000010: 721c 963d e187 b6bd bc38 813b 7111 70bd
00000020: c3d5 ecbd 3852 13be a726 a03d aa6f 473d
00000030: 8f43 5fbd 5e46 9d3d 9ab6 513c 41c2 243c
00000040: 7620 813d d7a2 e6bc 3e7c 3b3d 34a9 92bd
00000050: 7abc 17be 8ee0 39bd 7f85 71bc 93ce 503d
00000060: 94e4 2bbc 4f9a 0a3a 8ced eabd 156d 27bd
00000070: f063 1cbd efa5 36bd 2314 f1bc 1b67 823d
00000080: 7c39 4dbd 7785 a03d 285a 99bd 86fa 9cbd
00000090: 462e d33d 3f12 ae3d 29af aabb 0217 cd3c
000000a0: 75d9 943d f845 48bd a3c1 e83d 109d 89bd
000000b0: 1fa2 c0bd b226 c73b 415b ae3d 9bbc 85bd
000000c0: 8315 893d eac1 133d b39f 19be 709d b2bb
000000d0: 8f96 f33b 76f0 b3bc f9af d3bc 994d 5c3d
000000e0: 3897 a73d f51f c33b b15c 973d c68e c83d
000000f0: 289c 05be 5650 13bd ca09 adbd c278 8d3d
00000100: c89a eb3d a205 31bc 7ae6 b13c 11a6 4d3e
00000110: a899 8c3d b31b 1f3e cdf5 15be bf7e a43d
00000120: bdd5 943c bd93 5dbb 794f c9bd a2d9 ccbc
00000130: 8fcf 80bd c8f6 533c 34d1 63bc 1d45 bebd
00000140: d1a1 42bd 5ea0 15bd 8533 143e ad59 533d
00000150: 0bcd 01be 8992 813c d845 d7bd ff01 3b3e
00000160: 6a78 c63d b563 c5bd 3571 3cbe c3fe db3c
00000170: 01c8 e43d 5c96 5b3c f2b0 a23b 6834 203e
00000180: 36e2 e4bc dc62 21bd 8523 02be c101 763d
00000190: 7c18 2bbd 1d83 9b3d 840a 08ba 3792 633d
000001a0: d384 32be bec9 2cbe e2cf 27bd ae87 84bd
000001b0: 7991 be3a 203f bcbb 9b99 06be 4c56 493e
000001c0: f072 c63d 2828 723d 379a 8e3d 5fbd bb3c
000001d0: 9c64 e1bc 3afa 003d 7884 eebd f523 51bd
000001e0: 16e1 f03c 67f0 c6bc e6ed e3bd 0e3d 72bd
000001f0: 1c23 f6bd 1984 24bd e689 18be f738 62bd
00000200: 81e0 5c3c 4b0b e03c ef36 f7bd 9425 a53d
00000210: 7e10 fdbb cd03 c5bd 3197 a93d 6ac3 733d
00000220: 3094 883d c634 1ebd 3894 4dbd 17ea 603d
00000230: bd3d 643d 8c6e 25bc 48c3 673c 0997 883c
00000240: fce6 cb3d 03a0 373a 0a31 e0bd 9191 11bd
00000250: 9e21 383d 717a 853d 6459 a73d 16b0 b43d
00000260: 82d7 2dbd f243 5c3d a320 a0bd 9749 89bd
00000270: 0bf0 1abd bdb2 fabc 1be6 143e f297 973a
00000280: 0ab2 a3bd 8a9b ff3d ea84 eb3c 2417 af3b
00000290: a67c abbd a730 7b3c fd19 2d3d 20ca 283d
000002a0: 2054 1bbd ef0b bfbb 205a bfbc dfd1 153c
000002b0: a440 893d 1186 babc eda8 66bc 247a c23c
000002c0: 8dfa 09be 0745 f73b cadd 843d 42c0 d93c
000002d0: 6c71 05bd 086a ddbd 964a e5bd 9b9a 46bd
000002e0: 58c4 f03d 178f aabb 3220 063e f084 b0bd
000002f0: 3571 0f3e 29a2 2fbb c2c6 dabc bcbf be3d
00000300: 4ab3 29bd 4d1e 95bd 77c6 b93d 4ef8 f63b
00000310: ad8f 193d 22f3 cb3d 6644 ef3c 7de8 8cbc
00000320: 99aa 25be 5743 1cbe a1ff 93bd e895 9d3c
00000330: 14be c53d e9b4 e63d b4f7 fabd 66fa bdbd
00000340: 2847 283e 65dd 8bbd 13d7 263e 6369 f73d
00000350: 896b 06be 7ed3 123e 5f29 2abe 2fb4 ff3d
00000360: b16c 64bd 019e dcbd 0fb0 f23c fc65 13bd
00000370: 6c88 273e 568e d5bd f3b6 e43d 69be 553e
00000380: e356 c23d 57b4 803d e737 1f3d ff63 f43d
00000390: 3f08 bd3d 2f04 f43d 150c 553d 6ea1 2a3e
000003a0: 0a9b da3d 950c 02be 0367 30bd 1298 5d3d
000003b0: 9ad8 30be b389 f3bd 2905 9e3d 92b9 b3bd
000003c0: 187a ae3c a314 283d 180f 14be dc1d 9d3c
000003d0: 7012 543d 45f6 353d e24f 0fbe c816 c1bd
000003e0: bc5b c2bd 37d0 793d 6de9 50bb 691e 153d
000003f0: 2704 ab3c a292 bf3d 300f 07be 049c 96bc
-0.007913411 -0.06956419 -0.0588381 -0.100190386 0.07329644 -0.089126356 0.003943531 -0.058610383
-0.11564209 -0.14386833 0.07819872 0.048690476 -0.05450779 0.07679437 0.012799883 0.010056079
0.063050196 -0.02815382 0.045772783 -0.07161179 -0.14817992 -0.045380168 -0.014741301 0.050978255
-0.010491509 0.0005287276 -0.1147109 -0.040875513 -0.038181245 -0.04459184 -0.029428547 0.06367322
-0.05010365 0.078379564 -0.07487899 -0.07664971 0.1031156 0.08499574 -0.005208869 0.025035385
0.07268039 -0.048894852 0.11365058 -0.067194104 -0.09405922 0.006077611 0.08513499 -0.06530114
0.06693556 0.036073603 -0.15002327 -0.005450897 0.0074337195 -0.021965247 -0.025840746 0.05378494
0.081831396 0.0059547373 0.07390726 0.09792857 -0.1304785 -0.035965286 -0.08449133 0.06907798
0.115041316 -0.010804566 0.021716345 0.2008288 0.06865245 0.1553791 -0.14644547 0.080319874
0.018168325 -0.0033809983 -0.09829611 -0.02500612 -0.06289589 0.012937255 -0.013904858 -0.09290526
-0.0475176 -0.03652989 0.14472778 0.051599193 -0.12675874 0.015816944 -0.105113685 0.1826248
0.09690936 -0.09638158 -0.1840256 0.026854878 0.1117096 0.013402548 0.004964941 0.15644991
-0.027939897 -0.03940092 -0.12708862 0.060060266 -0.041771397 0.07593367 -0.0005189555 0.055559363
-0.17433481 -0.16873834 -0.040969737 -0.06471191 0.0014539204 -0.00574483 -0.13144533 0.19661826
0.09689891 0.059120327 0.06963008 0.022917448 -0.027513795 0.031488635 -0.1164636 -0.051059682
0.029404204 -0.024284555 -0.1112936 -0.059140258 -0.12018415 -0.04016504 -0.14896354 -0.055230107
0.01348126 0.027349135 -0.120710246 0.08063808 -0.0077229133 -0.096198656 0.082807906 0.059512533
0.066688895 -0.038624547 -0.05019018 0.054910745 0.05572294 -0.010097157 0.01414568 0.016673582
0.09956166 0.00070047396 -0.109468535 -0.035539214 0.044953935 0.065174945 0.08171347 0.08822648
-0.042441852 0.053775735 -0.07818725 -0.06703489 -0.03782658 -0.030602807 0.14540903 0.0011565669
-0.07992943 0.124808386 0.028749902 0.0053433347 -0.08373384 0.015331424 0.042261112 0.041208386
-0.037922025 -0.00583028 -0.023358405 0.009144275 0.06701782 -0.022769006 -0.014078361 0.023739882
-0.13474484 0.0075460705 0.064876154 0.026580933 -0.03257887 -0.108112395 -0.11195867 -0.048487287
0.117561996 -0.005205046 0.13098219 -0.08619106 0.14008029 -0.0026799536 -0.026706103 0.09313914
-0.04143075 -0.0728117 0.09071057 0.0075369244 0.037490536 0.09958483 0.02920742 -0.017200703
-0.16178359 -0.15260063 -0.07226492 0.01923652 0.09655395 0.112649746 -0.12254277 -0.09276275
0.16433394 -0.06829337 0.16292982 0.12080648 -0.13126959 0.1433849 -0.16617344 0.12485539
-0.05576772 -0.10772324 0.029624967 -0.03598593 0.16360635 -0.10427539 0.11167707 0.20873417
0.094892286 0.06284397 0.038871672 0.11933135 0.092300884 0.119148605 0.052013475 0.16663143
0.106741026 -0.12700112 -0.04306699 0.054100104 -0.17270127 -0.118914984 0.07715828 -0.08775629
0.021298453 0.041035306 -0.14458883 0.019179277 0.051775396 0.044424314 -0.13995317 -0.09428173
-0.09490153 0.060989585 -0.0031877414 0.036405955 0.020876003 0.0935414 -0.13189387 -0.01838494

lstm.bias_ih_l0 f4 [256]
00000000: fd9b 08be d11d 183c 395b dcbd a79c 053c
00000010: 8291 0d3e 8b47 ebbb 64f2 d7bb 2291 a2bd
00000020: 1fa7 19bd 6e4e eb3d bc32 103c 73c1 1e3c
00000030: 3816 e63c 1acf 573c 0baf 023e ac76 b83c
00000040: 3d63 b73d d311 313d 7483 a53c 0fda 873d
00000050: 8b1b 143e 85de 6fbd 5e10 a53d ee40 f53d
00000060: 82c2 903d 061b bd3d ecb8 4bbd 9992 d33d
00000070: bfb9 bd3d 7231 9a3d 4517 93bd 5b24 97bc
00000080: 63b9 77bd 6d6d 4ebc ba80 0a3d 6a8b c43c
00000090: ff97 8a3d 15f1 30bd 733c 0ebe 5b00 51bd
000000a0: f934 72bb 0007 4ebd 3f67 a2bc c5f0 d83d
000000b0: 41f2 573d 1a18 d83d 7097 15bd 0d1c d8bc
000000c0: 3d40 6abd bfda 8c3d 6ffe d93d e775 063e
000000d0: 367b 623c 3af9 29bd e3ad 983c 4a66 bd3c
000000e0: ff96 793d 29fe c13d dc70 f4bc de1a 9e3c
000000f0: 06d9 ac3d 55ef 8a3d 2e42 9ebd c224 4cbb
00000100: ade1 f53c 6f81 663d 7119 aebc 7697 31bd
00000110: 9424 83bd 5371 ecbd 842c 143d 4ae6 ad3d
00000120: 1567 94bd 133c 1e3e 5d12 a9bd 1846 f33b
00000130: 71c1 963d 429e e7bc ae48 b23b baa5 cdbd
00000140: 1747 54bd c4fd 7bbd f1ee 21bd 62fa af3d
00000150: 4855 2a3d d07c 11be 2d5b 603c 021e 83bd
00000160: 1819 563d 86d0 a83c 9ce8 b53b c458 493c
00000170: 392c b8bd 7fc5 86bc 4e20 12be a685 253e
00000180: 6b7e 353c acf6 e93d f2f7 91bd c783 ac3d
00000190: c185 0dbe dbe5 753d bfb2 af3c e831 b7bd
000001a0: 1b52 d8bd c46e ec3d c7b0 703d f434 133d
000001b0: 35c0 023e c347 f4bd 3d74 c93d 3195 47bc
000001c0: 6024 64bd c2e8 41bc 4190 07bd a6bc aa3d
000001d0: ba34 913d 3f16 923d 0727 9f3c 4e12 8bbd
000001e0: 0870 4e3d 68c5 8ebd 3f80 31bd 766c aebd
000001f0: 3d77 43bb 2fbf ddbd 19ae 893d 3f52 ad3d
00000200: 053e 72bd 242d 90bc 8b77 933d b0e5 4c3d
00000210: 14c6 06be 542c 533d fb78 9dbd e20d 193c
00000220: 9bc0 6e3c 6daa 7bbd 7e6a ddbd 8353 1abd
00000230: 4697 c1bd a085 673c d715 b3bc e518 603d
00000240: e8b6 8abd 1887 84bd 9331 48bd 86a0 6b3d
00000250: 10e5 fe3d 123e 623d df43 2dbc e2b9 753d
00000260: 4ece b6bd 2202 86bd 840e 0f3b cfef d5bc
00000270: d3f8 fdbd 8cf1 a9bd 2e0f 3e3d 7e5e bc3c
00000280: 4f5b df3d c79d 46bd 5175 cebb ee1e a53d
00000290: 2ec7 c53b 86cd 303d 85d0 5fbd 3c16 debd
000002a0: fc0f 10bc cd5e 003d d0f6 a7bb 23dd 64bc
000002b0: 1222 a13d 54dd 843d cbea 9fbd 93f3 20bd
000002c0: 2981 1ebd d336 7cbd 1546 9bbb 2e2f 84bd
000002d0: 6d26 87bd c4e7 b2bd b8d8 463d 8c44 993d
000002e0: 3810 203e e890 6a3d 9ea9 6ebd 5283 a1bc
000002f0: dee6 cb3c 2ad3 85bd f0c8 2bbe c1ed 88bd
00000300: 8544 943c b85c e73d 6e86 90bd 35ca 5fbd
00000310: 0eff 033e 59cc 83bb 2499 883d 5f3c cbbd
00000320: d1c0 453d 6f22 603d 819e 2dbe 3e22 4f3d
00000330: 9b6c 80bc 48a6 dbbd 2f32 823d c480 6ebd
00000340: 2e42 81bd 725c c8bd c1a5 543d 4b65 593d
00000350: 87fc 963c 3625 0dbe f382 613c 9aa2 5bbd
00000360: c805 00bd 9802 6f3d b701 8ebd b320 e23d
00000370: 3165 b0bd 6fae 903d 3b1a 063c ebb5 073e
00000380: 3785 94bb c610 423d ffe1 7abd 8154 14bd
00000390: aafd c63b 0f3c df3d d7b5 753d 512d 4b3d
000003a0: 628d 6b3d 24cf da3d e35b f93b 09ab b93d
000003b0: 6274 e1bb 8cc8 4f3d a1f2 cb3b d438 f23c
000003c0: 2fc6 1fbd 22e9 e7bd de3d 6c3d e115 e53d
000003d0: f816 ed3c b6c3 fbbb 3d14 4cbd 441c 50bd
000003e0: df28 00bd 70fe dc3d d493 3d3d e745 7cbd
000003f0: 1a44 433d fc59 b43d dc94 0f3e 620a 5bbd
-0.13340755 0.009284453 -0.10759587 0.008155025 0.13825038 -0.0071801594 -0.0065901745 -0.07937838
-0.037512895 0.11489569 0.0088011585 0.009689677 0.028086767 0.013171935 0.12762086 0.022517525
0.08954475 0.04322989 0.020204283 0.06633388 0.14463632 -0.05856182 0.080597624 0.11975275
0.070683494 0.0923367 -0.049736902 0.10330696 0.09263944 0.07528962 -0.07182173 -0.018449953
-0.060479533 -0.012599331 0.03381417 0.023992259 0.06767272 -0.043198664 -0.13890247 -0.05102573
-0.0036957844 -0.050299644 -0.019824622 0.10592798 0.052721266 0.10551472 -0.036521375 -0.026380563
-0.05719017 0.0687766 0.106442325 0.13130914 0.013823321 -0.041497447 0.018637603 0.023120064
0.060935017 0.09472305 -0.029838972 0.01929992 0.084398314 0.0678393 -0.077274665 -0.003114984
0.030014837 0.05627578 -0.021252366 -0.043357335 -0.06403461 -0.115450524 0.036175266 0.0849119
-0.07246224 0.15452604 -0.08255456 0.0074241273 0.07361115 -0.028273705 0.005440793 -0.100413755
-0.05182561 -0.061521307 -0.039534513 0.085926786 0.041585237 -0.14207768 0.013693613 -0.06402208
0.052270025 0.020607244 0.005551411 0.01228923 -0.0899281 -0.016451595 -0.14270136 0.16164264
0.011077504 0.11424002 -0.0712737 0.08423572 -0.13820554 0.06003366 0.021447537 -0.08945066
-0.105625354 0.11544564 0.058762338 0.035939172 0.12768634 -0.1192775 0.09836624 -0.012181566
-0.055698752 -0.011835279 -0.033096556 0.08336763 0.07090135 0.07133149 0.01942779 -0.06790601
0.05039981 -0.06971246 -0.043335196 -0.08516781 -0.002982571 -0.10827481 0.067226596 0.08462953
-0.059141178 -0.01759965 0.072005354 0.050023735 -0.13161498 0.051555946 -0.07689091 0.009341689
0.014572288 -0.061441828 -0.108113274 -0.0376773 -0.09452681 0.01413098 -0.021861 0.05471124
-0.06773168 -0.064710796 -0.048875403 0.057526134 0.12446034 0.055234976 -0.010575264 0.059991725
-0.08926068 -0.065433756 0.002182872 -0.026115326 -0.12400975 -0.082980245 0.046401195 0.022994276
0.109060876 -0.048490312 -0.0063006063 0.0806254 0.006035707 0.043164752 -0.05464222 -0.108440846
-0.0087928735 0.03134041 -0.005125858 -0.013968739 0.078678265 0.064875275 -0.07808455 -0.03929479
-0.038697395 -0.061575722 -0.004738579 -0.06454311 -0.06599126 -0.08735612 0.048546523 0.074837774
0.15631187 0.0572671 -0.05826723 -0.019715939 0.02489036 -0.06534417 -0.1677587 -0.06685973
0.018099079 0.112969816 -0.070568904 -0.0546362 0.12890264 -0.004022163 0.06669834 -0.09923624
0.048279587 0.05472034 -0.16954996 0.050569765 -0.015676787 -0.10725075 0.06357228 -0.05822827
-0.06311451 -0.097832575 0.051915888 0.053075116 0.018430961 -0.13783726 0.013764131 -0.053621866
-0.031255513 0.058352083 -0.06933921 0.11041393 -0.08613051 0.070645206 0.008184965 0.1325299
-0.004532482 0.047379278 -0.061250683 -0.0362134 0.0060727196 0.10900127 0.05998787 0.049603764
0.05750788 0.1068404 0.0076098307 0.090658255 -0.006880329 0.050728366 0.006223992 0.029568113
-0.039007362 -0.113237634 0.05767619 0.11185814 0.028941616 -0.0076832427 -0.04982399 -0.050808206
-0.031288978 0.107907176 0.046283558 -0.0615901 0.04767237 0.08806226 0.14021629 -0.0534767

lstm.bias_hh_l0 f4 [256]
00000000: 0b1e b53d cabf 993c 5179 003e 62da 693d
00000010: ebbf e63c e735 dd3d fc52 7fbd 9cf9 b4bb
00000020: c8b4 0cbe 7e77 3b3e 9d3f a13c 4c9e 1d3d
00000030: 76e1 1c3c d29d 093d 37ce 053e 55d1 b73d
00000040: 7844 0bbd 2c4c adbd 68c7 823d 1166 c9bc
00000050: b8f0 ae3c 7f53 23be a2c4 dcbb 247d b2bd
00000060: bf0b 8b3c efd4 4dbd 9340 f43d 9dd8 e5bd
00000070: b9f8 a33c 0018 babd df86 87bd c573 9abd
00000080: dedf b03d 633b 113e 1199 b63d 6aef 9a3d
00000090: b88a 10be 3f6e 85bd 64db 683c 5b24 0b3d
000000a0: ceed 703d 71fa f13d 2e9c e8bc d367 9e3d
000000b0: fa70 abbd e9e9 e13d bb09 9abd 1f34 013e
000000c0: 6c7f 9ebd bd68 cf3d 791c 14bd 2ee5 0f3e
000000d0: c49d c13c b64d b23d e497 cd3d 148e 09bd
000000e0: 6015 673c 2bc1 e5bd 6fa4 8dbd b51c 2a3d
000000f0: be87 c8bd 71fc c53d 82fb ed3d 5291 96bd
00000100: 6409 c3bd d8c9 ccbc ac22 873d 130c 003e
00000110: ab2f d5bd db82 dc3d 9851 143d aa5a babc
00000120: 994c dd3c 536e 033e 7868 aebd 0069 493d
00000130: 6d8c 49bd a3cf e23d 3649 4cbd 425b ddbd
00000140: 0db4 50bc 9192 fd3d bfc0 eb3d 7993 3dbc
00000150: a6f7 123d c476 22be 1209 9f3d 9772 8f3d
00000160: 8e05 d43c 9521 d7bd d422 523d 3e57 8a3d
00000170: 56a7 fd3b 7ff4 bd3c e2b5 73bd b33c 49bd
00000180: fd1f 993d a82f e53d 9061 063d d2da 75bd
00000190: 24eb 963d 32cd a7bd ac17 9f3d d936 31bd
000001a0: ecd6 e1bc a619 b23d dd8c fb3d 6b31 eebd
000001b0: 590b 0dbc be01 bc3c 275c f2bc ef2c babd
000001c0: 837a 253e 23c9 d5bb 3129 90bd 5c6c 103e
000001d0: 1ea9 fbbd ac17 b6bc 99f1 63bd 2875 373d
000001e0: 8b78 1d3e 4555 72bd a58a 343d 82b5 5c3d
000001f0: 164e f93d 2b19 0fbe f6f8 013e 2b0e d4bb
00000200: 9d03 c83d 6b90 31bd c044 033d aa92 943b
00000210: 7e73 a53d 781f 853d 0fca 7bbd a72d b93d
00000220: 7c4c 463d 619c 62bd d9a0 e9bc 35e5 9bbc
00000230: f1a5 3bbd 374f db3d e215 413d 229f 0fbe
00000240: a28b 123d 1022 a73d 9d3d 35bd c743 89bd
00000250: 23ba 09bc 0fd7 2e3d 488d f0bb 9ee7 16bd
00000260: 70c0 6c3d a058 b6bd ca2a 80bd c84f 093d
00000270: 3fb5 8b3d c019 aabd 63ab 9bbc 9cb3 4ebd
00000280: 6c08 af3c 4ac2 c43d b723 8c3b 5e63 2f3d
00000290: 2866 a83d 8471 6e3d 0be2 ac3c fc0a 87bd
000002a0: c612 483d 629b 75bd b74e 923a 9fc4 16bc
000002b0: 84d6 8dbc d2fe d9bd 272a 9d3d dc6c a83d
000002c0: 0459 553d 2cdd c13d e7b5 0bbe dc3c c83c
000002d0: fe13 393d ceba d83c b54f b8bd 84ea 83bd
000002e0: dcef abbc 95b8 abbd c40c 993d 199b cb3d
000002f0: 664e a6bc da64 8bbd 1679 8dbd fbfd b23d
00000300: 30ac c53d 12d3 8cbd 9ea6 25bd 9372 94bd
00000310: 060f b1bd 9e5f 53bd 127f fcbd f1a0 933d
00000320: d32f b2bc d9af 153d 23cf 843d 9366 af3d
00000330: ec23 dcbd a7db c9bc e8fa 88bd e371 903d
00000340: da0e 86bb b654 e5bd bb15 cf3d 0990 13bb
00000350: 7611 0e3e 8c54 13be 23fb 07bc 027a 8f3a
00000360: 7170 963c 5cc4 df3d 7159 c0bd c706 c5bd
00000370: 4260 103e 0ec0 043d 7dea 923d d654 4ebd
00000380: 7f8a 893d 4a50 33bd c37c 73bc 9973 48bc
00000390: 9a71 01bc a99f b5bd a634 c23c e3bf 433d
000003a0: 4e62 9ebd 6c90 a53d f191 0d3e 4cab 7dbd
000003b0: 142e f03d f372 f83b b80c b03c 549f d0bd
000003c0: c00c b0bc 3dda 803d 1efa e3bd 2f74 2fbd
000003d0: ade4 e5bd fb54 b6bd 3bff 053e 9444 afbd
000003e0: 178d 38bd 508d 95bd 25c2 c7bd 4845 76bd
000003f0: 6c68 8b3c bd41 12bd 0d2d 42bd 6bdb cbbd
0.08843621 0.01876821 0.12546279 0.05709303 0.028167685 0.10801297 -0.062335 -0.00552292
-0.13740838 0.18307301 0.019683653 0.03848104 0.009575238 0.033597775 0.13066946 0.08975474
-0.034000844 -0.08461794 0.0638569 -0.024584802 0.021355018 -0.1594982 -0.0067373076 -0.08715275
0.016973374 -0.050251897 0.11926379 -0.11222956 0.020016061 -0.09086609 -0.066175215 -0.075416125
0.08636449 0.1418281 0.08915914 0.07565196 -0.14115417 -0.065151684 0.014212463 0.03397022
0.05882054 0.11815346 -0.028394785 0.07734647 -0.08371158 0.11030943 -0.07521387 0.12617539
-0.077391475 0.10127399 -0.036159966 0.14052269 0.023634799 0.087062284 0.100387365 -0.033582762
0.014104217 -0.112184845 -0.06916129 0.041531283 -0.09791516 0.0966729 0.11620237 -0.073519364
-0.095232755 -0.02499859 0.0659841 0.12504606 -0.104094826 0.10767146 0.036210626 -0.02274831
0.027014064 0.12835054 -0.085160196 0.0491724 -0.049206186 0.1107476 -0.049874507 -0.10808422
-0.01273824 0.12381471 0.11511373 -0.011570805 0.035880707 -0.15865618 0.07765402 0.07004278
0.025881555 -0.10504452 0.051302746 0.067549214 0.0077408953 0.023187874 -0.05949963 -0.049130153
0.074768044 0.1119073 0.032807887 -0.060023136 0.07369068 -0.08193435 0.07768187 -0.043265197
-0.027568303 0.08696298 0.12282727 -0.116305195 -0.0086086625 0.02295005 -0.029584957 -0.09090602
0.16160016 -0.0065242215 -0.07039107 0.14103836 -0.12288116 -0.022228085 -0.055650327 0.044789463
0.15378015 -0.05916335 0.044077534 0.053884037 0.12173097 -0.13974445 0.12692627 -0.0064714155
0.09766314 -0.04335062 0.032047987 0.0045340853 0.08078669 0.06500143 -0.061471995 0.090419106
0.048412785 -0.055324916 -0.028519081 -0.019030193 -0.04581255 0.107084684 0.04714001 -0.14025548
0.035777695 0.08160794 -0.044248212 -0.067023806 -0.008406195 0.042685565 -0.007341061 -0.03684198
0.05780071 -0.089036226 -0.06258161 0.03352335 0.06821679 -0.08305693 -0.019002622 -0.050464258
0.02136632 0.0960737 0.0042767185 0.042819373 0.0822261 0.058213726 0.02110388 -0.06593892
0.04884603 -0.059962638 0.0011162375 -0.009202152 -0.017314203 -0.10644306 0.076740555 0.08223888
0.052086845 0.09466013 -0.13643609 0.024443083 0.04518508 0.026456263 -0.08999578 -0.06441215
-0.020988397 -0.083848156 0.07473138 0.09941692 -0.020301055 -0.06806345 -0.06907861 0.08739849
0.09651983 -0.06876196 -0.0404421 -0.07248416 -0.086454436 -0.05160486 -0.12328924 0.072084315
-0.02175132 0.036544655 0.06484821 0.08564486 -0.10749039 -0.024640871 -0.066884816 0.07052972
-0.004091126 -0.11197798 0.10111567 -0.0022516272 0.13873848 -0.14387721 -0.008299622 0.0010946395
0.018364163 0.109261245 -0.093920596 -0.09620433 0.1409922 0.03240972 0.07173631 -0.050373875
0.06715869 -0.04377774 -0.0148612885 -0.012234592 -0.00790062 -0.088683434 0.023706745 0.04779042
-0.07733594 0.08084187 0.13825203 -0.06193094 0.11727539 0.0075820624 0.02149044 -0.101866394
-0.021490455 0.06291626 -0.111316904 -0.04283541 -0.11225257 -0.089029275 0.13085644 -0.08558002
-0.04505643 -0.07302344 -0.09753827 -0.060124665 0.017017566 -0.035707224 -0.047406245 -0.0995396

lstm.weight_ih_l1 f4 [256, 64]
00000000: 0d28 893d c58a 0b3e 0e39 e5bd 5d85 28bd
00000010: bd29 213e 7b94 b8bd f87f bdbb 0748 07bb
00000020: 2a3a 403d e6b0 cc3d a445 dcbd f785 30bd
00000030: b6a4 2e3e 28a1 b9bc aa69 81bd 4213 183e
00000040: b513 ba3d b525 37bd b388 b8bc 125e 7abd
00000050: a8af 193e 5b21 c3bc 439a bdbc 24ad 00be
00000060: 5f84 073d 0df3 2cbc cee4 943a 7306 6cbe
00000070: b931 0ebe 1cde 533e 44b3 3a3e ff81 74bd
00000080: f7c5 bb3c 7735 8a3d b995 0cbd ccf2 a3bc
00000090: 7916 e5bd e3c6 5abd 925c 0dbe 21ea bebd
000000a0: 4b3b ca3c 0a71 003d c7c0 0dbe e7f6 04be
000000b0: 1f6c 6d3d 71ee abbc dccd 76bd 6465 3cbd
000000c0: 23ab b7bd c470 ae3c b3f1 0f3d 0c32 90bd
000000d0: 84bb e43c ce37 0bbe 370a 743d a2f9 52be
000000e0: c080 46bd 0ff8 883d 10fd 243e 015f 65bc
000000f0: 0acc 74bd 5005 6bba 3eab 993d 2d09 b83d
00000100: 7bc4 89bd 4f32 ccbd 4283 5f3d 6b84 863e
00000110: 3c1c 0d3e d02d 36be 87a1 76bd edba 9ebd
00000120: 18d1 d4bc c7e5 56be 0b45 823e 5666 0bbe
00000130: 0591 603d 3fb7 943d ab79 babd e4e7 163e
00000140: c585 26bc 844a bbbd 0095 dbbd 131d 2a3e
00000150: 9bb5 68be 8457 1b3e 7c38 47be f3ba 0f3e
00000160: ad6e 0cbd da93 2abe 24c3 b9bd 9d80 bbbd
00000170: acac 703d 79aa 7abc 4088 c7bd 28a6 413e
00000180: 33c5 7ebd b36d 0bbe 2b65 69be d582 4f3d
00000190: bbab 343e 9108 aa3d f0e9 f03d 0659 343e
000001a0: 61b8 a23d 2cd3 c3bd b6e9 4fbe 2116 80bd
000001b0: 9156 703d ad77 1fbd d888 bd3b 8810 473d
000001c0: ed74 c5bd 5db9 e53d a2a1 aabd f7d7 c03d
000001d0: 65bf e4bd b48c 44bd 3170 33be e247 a4bc
000001e0: f7ac e0bd 97cc 6d3d bf96 3fbe 8428 5f3d
000001f0: fa19 b4bd 90cc 4e3e b03e 0cbd 7b67 0e3d
00000200: 2afb 963d bf0a 2ebe ccf5 3d3b dbcd c53d
00000210: ab04 0abc 85cf d4bd 675f c8bd 2fe6 00be
00000220: 6456 8a3d 20af 90bd 1352 bc3d 4541 cabd
00000230: a283 eebd 6bf8 e8bd a921 51bd 4cc8 63bd
00000240: 8580 75bd 5b52 d53d 57bf b5bd 53ef 7d3e
00000250: 06f1 a8bd 960b 7abc f9d8 4fbe 42ff 513e
00000260: 701c b5bd e3f6 b3bb 99c4 133d c3e4 8fbc
00000270: ffd7 973d 131d 0dbd ee0d 3abd 529e 95bd
00000280: ec50 553d 781c 0cbc f276 23bd 290c e93a
00000290: ff12 ebbc 1c1a 863d 298b e9bd 9ba4 813c
000002a0: 3909 d63d 3a26 0dbe e631 55bd 8af8 50be
000002b0: b39b 533d 9982 febd f45d 5bbd 55b3 803d
000002c0: 8651 593d 7102 1f3e 714f c5bd 5205 313e
000002d0: febc acbd 54e6 aa3c 15c1 e8bd 5b11 9cbc
000002e0: fe00 97bc 9723 efbd 41cf f93d 0218 053e
000002f0: de85 373d 8eff bb3a 6ada a1bc a7f4 733d
00000300: 0212 9a3c 5cc3 17be a038 83bc f47b 213e
00000310: 0c5f 393c d2ae 09be b31f 423c 6d98 f7bd
00000320: 082d dc3a f624 abbc e07a 03bd 34c2 063d
00000330: 68be ddbd e619 643d a6a5 583d 4c49 a03d
00000340: 4985 c43d a126 b4bc 9560 823d 18ae 123d
00000350: d5fa 253d 78a4 ef3d 2cc1 2bbe 20cc f33d
00000360: beac ddbd bb62 543c f251 8a3d 33bb acbd
00000370: 1f32 e23d 7b5e 52bd 3802 91bd 5421 b9bc
00000380: 7354 6a3d ae14 073d 7813 d73b 9736 473d
00000390: 5a60 cf3d 561e df3d 3dd3 993b 6a4a eabc
000003a0: 4ecc 2bbd 661a fcbc dc9c 56bc 94c4 68bc
000003b0: 5791 c73d 6c16 9b3d 4acf 9e3c 7241 12be
000003c0: 060e 383d c10b e8bc 13b8 afbc 71a6 953d
000003d0: db18 6cbd 16ed e6bd 3301 5d3c 04d5 1abd
000003e0: cbf3 7cba 4892 d3bd 0934 1e3e 4167 81bd
000003f0: db32 953d 2d91 833d f5e5 af3d f4e2 8dba
0.06697092 0.13627155 -0.11192523 -0.04114281 0.15738578 -0.090126954 -0.0057830773 -0.0020642297
0.04693047 0.09994678 -0.107554704 -0.04309651 0.1705502 -0.022659853 -0.06318982 0.14851096
0.0908579 -0.044713695 -0.02252612 -0.06112487 0.15008414 -0.023819616 -0.023144847 -0.12566048
0.033085223 -0.010555995 0.0011359693 -0.23049335 -0.13886155 0.20690197 0.18232447 -0.059694286
0.022921545 0.06748479 -0.034322474 -0.020013236 -0.11185927 -0.05341233 -0.13804844 -0.09322
0.024686476 0.031357802 -0.1384307 -0.12984811 0.05796444 -0.020987721 -0.060254917 -0.04599513
-0.089681886 0.021294005 0.03514261 -0.07040796 0.027921446 -0.13595507 0.059580054 -0.2060304
-0.04846263 0.066879384 0.1611216 -0.0139997015 -0.0597649 -0.000896533 0.07503365 0.08986125
-0.06726929 -0.09970533 0.054568537 0.26272902 0.13780302 -0.17790914 -0.06021264 -0.07750497
-0.02597861 -0.2098609 0.254433 -0.13613257 0.0548258 0.07261514 -0.091052376 0.14736897
-0.010163729 -0.09145072 -0.10721779 0.16612653 -0.22725527 0.15170103 -0.19455141 0.14036159
-0.034285236 -0.16657963 -0.09070423 -0.091553904 0.058758423 -0.015299433 -0.097427845 0.1891104
-0.062199783 -0.13616066 -0.22792499 0.05066188 0.17643635 0.08302415 0.1176337 0.17612085
0.07945324 -0.09561762 -0.20303997 -0.06254221 0.058676306 -0.03893249 0.0057841353 0.04859975
-0.096414424 0.11216996 -0.0833161 0.09416192 -0.11169318 -0.047985747 -0.17523266 -0.020053808
-0.109704904 0.05805644 -0.18709849 0.054481998 -0.08794017 0.20195222 -0.03423947 0.034766655
0.073721245 -0.16996287 0.0028985618 0.096584044 -0.0084239645 -0.10391144 -0.097838216 -0.12587808
0.06754759 -0.070646524 0.09195342 -0.098757304 -0.11646201 -0.11375507 -0.05105749 -0.05561094
-0.05993702 0.10416099 -0.08874386 0.24798326 -0.082490966 -0.015261551 -0.20297612 0.2050753
-0.08843315 -0.0054920777 0.036076162 -0.017565137 0.07414245 -0.034451555 -0.04542344 -0.07305588
0.052079126 -0.008551709 -0.039908357 0.0017780113 -0.028695581 0.06547949 -0.11403496 0.01582556
0.10450978 -0.13784114 -0.05204954 -0.2040731 0.05166216 -0.12427253 -0.053556398 0.06284205
0.053056262 0.15528275 -0.09634293 0.17287186 -0.08434485 0.020861782 -0.113649525 -0.019051244
-0.01843309 -0.1167671 0.12197734 0.1299744 0.0448054 0.0014343129 -0.019757468 0.05955949
0.018807415 -0.14820617 -0.016018212 0.1576994 0.011314165 -0.13445595 0.011848378 -0.1208962
0.0016798088 -0.020891648 -0.032099605 0.03290005 -0.10827333 0.05568876 0.05289235 0.0782648
0.095957346 -0.021991076 0.06366078 0.03581056 0.040522415 0.11701292 -0.16772908 0.11904168
-0.108239636 0.012962992 0.06753911 -0.08434143 0.11044716 -0.051359635 -0.07080501 -0.0225989
0.057209443 0.032978706 0.0065636 0.048636045 0.101257995 0.10894458 0.004694371 -0.028599937
-0.041942887 -0.030774307 -0.013098922 -0.014207024 0.09744518 0.07572636 0.019385953 -0.14282778
0.04493525 -0.028325917 -0.021450078 0.07307137 -0.05764089 -0.11275689 0.013489055 -0.037800804
-0.0009649365 -0.10330635 0.15449537 -0.06318522 0.072850905 0.064241745 0.08588783 -0.0010825084

lstm.weight_hh_l1 f4 [256, 64]
00000000: 91fa 643d 1f40 123b 3fc5 573d bae1 813c
00000010: de39 13be b726 42bd 6aac a7bb 594d 523d
00000020: 029f 203e 53aa c7bc 8a62 7b3d 120a 563a
00000030: 2af0 573e 7f10 a7bc 545a fdbd be2e a3bc
00000040: b26c 8fbd 1c09 03be 0ca4 833c 8409 45bd
00000050: 1c00 b6bd 1d7d e53b 4944 3bbd 9d3b 603c
00000060: ae6a ffbd 663a a13d 5aad 0ebe 617a e9bd
00000070: 8792 29be cde6 ad3d 17da 3c3b 34b4 8ebd
00000080: 4ed3 b23c 1bdb 9f3d 7fe5 d43c 45f2 733d
00000090: e3b6 bc3c 8f87 19be eac9 00be e057 f53d
000000a0: 2928 ea3d 29f2 8d3c 6aa9 0e3e 7df8 f43d
000000b0: 2077 293e d7ae 453d cea6 073e b876 34be
000000c0: 1fa3 a1bd 0683 953c 3a47 0ebd a027 09bd
000000d0: 855e 923d 2166 f33d 7da6 263e aac5 c5bd
000000e0: dc56 893d 7248 293d 157f 8a3c 341d a93d
000000f0: 53f3 5e3c 78bc c83d bf41 a83d 7ddb 08be
00000100: f65a 943d b211 b03d 962e 1cbd 9a8e a1bd
00000110: a21a babd 784c b53c cbeb 43bb 8322 50bb
00000120: 6ea6 1b3e f29c 2b3c a3a1 a63c 5678 483d
00000130: e75f 153e 6389 c23d 8c8b 983c dcab 10bc
00000140: 31b0 9bbd ddfd 4fbe 4f06 96bd 317b be3d
00000150: 935a 6e3d 25af 2e3e 3dfd 413d a023 28be
00000160: 49a1 83bd 1157 303e d44d bdbc 3491 c4bd
00000170: 7d44 c7bd c81d 4fbd 03f5 a7bc bf7c 63bd
00000180: 0fe1 26be 653d 103e f510 16be 23f4 f8bd
00000190: 85fd 743d 2e42 ae3c 422c cdbd 7fe6 9c3d
000001a0: d92a f73d ecc7 7fbd 5c1c 113e eeaa 463e
000001b0: bae7 a7bc 3f40 fdbc 29f9 ff3d 06c5 ffbd
000001c0: 10d2 933d 95e0 093d 5bb7 28be 125d 403d
000001d0: e015 783d 0a21 493d 4ca8 c73d 3e73 d53c
000001e0: be8d b8bc 0cce 3f3c 15d3 8e3d e5bd 9a3d
000001f0: 5262 d6bd 5a1c e73d 5788 06bd 1b6a c7bc
00000200: 58ae 01be f908 f43c a9a7 0d3e 094b 7f3d
00000210: 4238 0eba d19a 05bd cfb9 fc3d d62e c1bd
00000220: adc2 bf3d a6eb b93d 8593 1bba 1fbe 97bd
00000230: 509b 95bd 3493 7fbd 367e 963d edca 2d3d
00000240: 76f1 bbbd ebad d13d f4ca f03d b72e ff3d
00000250: cfbb 04be 1980 003c d5f3 b5bd 84dc 4b3c
00000260: 615e 95bd 5ea9 7bbd 26f6 e3bd cb6d ab3d
00000270: 99bc 2bbc d9c4 cc3d 9d58 68bc 3356 cfbc
00000280: d46c b13d d94a 36bc 4e81 753c 4770 023e
00000290: 842c 1cbe fd26 ba3d 3960 e3bc ff06 c33b
000002a0: 3717 123e 66aa a13c f872 343d 32f9 0a3e
000002b0: b21f 8fbd b39e d0bb e4bf f93c 03f3 fabb
000002c0: 0007 f63c 6284 c9bd ba7a ccbd 54b9 3d3d
000002d0: 9a20 d4bd 43ad d73d b79f acbc 874e 473c
000002e0: ef3c 543d 8ed2 6f3c 708a 91bd 61cc 503c
000002f0: ce5a 8e3d eca4 80bb 68d9 a23d e50d 543c
00000300: cf3b 423d 7633 533c dd46 42bd 5717 d63d
00000310: b699 f1bd 3938 adbd e409 e0bd 63e0 b73d
00000320: 8946 2d3d 313e 57bd 4393 e7bd c5db b63d
00000330: 4e63 56bd 22b2 cb3d 10c5 8b3c 5d89 c23d
00000340: 73c3 19bd c30e 5cbd c72a 0d3d 6817 c5bd
00000350: db3f d4bd 33ff 85bd ae77 6dbc 6b1c 32bd
00000360: d540 f4bd 8e60 00bd 76be 13bd 9e7e fabd
00000370: 771f 3f3d dab7 08bd be60 fd3d c2af c13d
00000380: 5c9e ffbd f908 63bd 54b1 debc ee87 18bd
00000390: d600 563d 1c2e 2f3d 0427 90bd 0e5e 2fbc
000003a0: 8680 033e fdc7 063d c20a 263d 8a6e dfbc
000003b0: 761d 82bc 8d20 653c 31af 153e 72ed f73c
000003c0: 0677 5e3c 5e97 e9bc c638 2bbc d782 7bbd
000003d0: a212 903c 3686 363d b2bb f43d fa89 e83d
000003e0: 518c 1e3d 0d68 7abc c20d 3d3d 0caf 853d
000003f0: 6e57 5dbd ef63 363d 901e 8fbd 346a fdbd
0.05590302 0.0022316051 0.052678343 0.015854705 -0.14377543 -0.047400203 -0.005116989 0.051343296
0.15685657 -0.02437321 0.06137327 0.0008164953 0.21087709 -0.020393608 -0.12370744 -0.01991975
-0.07003154 -0.12796444 0.016069435 -0.048104778 -0.088867396 0.00700344 -0.04571942 0.013686088
-0.124715194 0.07872467 -0.13933316 -0.11400295 -0.16559802 0.084912874 0.0028816515 -0.06967965
0.021829274 0.07805463 0.025988339 0.059557218 0.023036426 -0.14993118 -0.12577024 0.119796515
0.11433441 0.017327385 0.13931814 0.11961458 0.16549349 0.048262443 0.13247225 -0.17623413
-0.07892441 0.018250953 -0.034735896 -0.033485055 0.071469344 0.11884714 0.16274448 -0.09656842
0.0670602 0.041328855 0.0169063 0.08257523 0.013607818 0.098015726 0.08215665 -0.13364978
0.07243912 0.08597125 -0.038130365 -0.07888527 -0.09087111 0.02213119 -0.0029895182 -0.0031758852
0.15200207 0.01047443 0.020340746 0.048942886 0.14587365 0.09498861 0.018621229 -0.008830037
-0.07601965 -0.20311685 -0.07325422 0.09300841 0.058191847 0.17059 0.047360647 -0.1641984
-0.06427247 0.17220713 -0.0231084 -0.09598008 -0.0972986 -0.05056551 -0.020502573 -0.05553889
-0.1629679 0.1408592 -0.14654906 -0.121559404 0.059812088 0.021271791 -0.10018207 0.07661151
0.120687194 -0.06244652 0.14170974 0.19401142 -0.020496238 -0.030914424 0.124986954 -0.12488751
0.072178006 0.033661444 -0.16476195 0.04696376 0.060567737 0.049103774 0.09748897 0.026055928
-0.022528525 0.01170684 0.069738545 0.07555751 -0.10467972 0.112847045 -0.032844868 -0.024342587
-0.12664163 0.029789435 0.13833489 0.06232742 -0.0005425253 -0.032618348 0.12340128 -0.09432761
0.09363303 0.090781495 -0.0005934763 -0.074093096 -0.07305014 -0.062396243 0.073482916 0.042429853
-0.091769144 0.1023825 0.1175746 0.12460082 -0.12962268 0.007843041 -0.08884398 0.012442712
-0.07293392 -0.061440818 -0.111309335 0.08370551 -0.010481977 0.09998483 -0.014181283 -0.025309658
0.086633354 -0.0111262435 0.014984442 0.12738143 -0.15251356 0.09089468 -0.027755843 0.0059517617
0.14266668 0.019734573 0.044054955 0.13571623 -0.06988467 -0.0063665747 0.030487008 -0.007658364
0.030032635 -0.09839703 -0.09984346 0.04631932 -0.10357781 0.10531094 -0.021072252 0.0121647185
0.051815923 0.0146376025 -0.07106483 0.01274404 0.06950913 -0.00392591 0.07951623 0.012942766
0.04742032 0.012890687 -0.04743086 0.104536705 -0.11796896 -0.08457989 -0.109393865 0.08978345
0.042303596 -0.052549545 -0.11307385 0.089286365 -0.052340798 0.099460855 0.01706174 0.09498856
-0.03753991 -0.053725015 0.034464624 -0.09623605 -0.10363742 -0.06542816 -0.014493866 -0.043484133
-0.11926428 -0.03134208 -0.03607031 -0.122311816 0.046660867 -0.03337846 0.12371968 0.09457351
-0.124813765 -0.05542848 -0.027184166 -0.037239008 0.05224689 0.042768583 -0.07038692 -0.010703577
0.12841997 0.032905567 0.040537603 -0.027274389 -0.015883189 0.0139848115 0.14617611 0.03026459
0.013578182 -0.02851456 -0.010450548 -0.061404075 0.01758701 0.044561587 0.119498625 0.11354442
0.038708035 -0.015283597 0.0461557 0.06527528 -0.054038458 0.044528898 -0.06988251 -0.12373772

lstm.bias_ih_l1 f4 [256]
00000000: 8011 963d 852c ea3d 21c7 fe3c e31a a4bd
00000010: 0f3c 9b3d 4ba3 a63d e9b5 a7bc 6121 4b3d
00000020: 8fd4 c23d d0f7 b3bc c2ec 11bd 36ee 573d
00000030: 8678 4b3d 592a 09bc 0c39 c2bd 454b b43d
00000040: 381d a5bd b25e 253d 83ac 033e bb91 493d
00000050: 905e f03d 348a 0a3c 3d6e d93d b2de 9cbd
00000060: 7356 353d 29c6 a6bc e971 763d 9498 cebd
00000070: b175 3abd 492d 013e 6ad8 753d 3cc0 9abc
00000080: 602a 92bc f927 e7bd 4077 103e fd5e 2d3c
00000090: a7c4 25bc 1753 603d 80b6 aabd ac14 12bc
000000a0: 37d7 d2bd 0df4 923d 2fde 1a3d 1333 c9bd
000000b0: e5d0 1b3d f81d efbd 9a98 f93c 55e1 703c
000000c0: 8886 bb3d 8c9a 1f3d afa5 833d 1470 4bbd
000000d0: 5816 7dbd 41fb 37bc ec0a d03d a2b3 a23d
000000e0: 1d8d b4bc 1321 7e3d 50a0 e4bd d350 cdbd
000000f0: 31d5 d83c 01ee 813d a28c c6bd 5099 cc3d
00000100: c563 a0bd 13e6 903d 17cb 0e3d 942a 8dbd
00000110: 53ea a53d 5430 ad3c c7c0 8a3d 5dd0 923d
00000120: 75e2 b1bc a123 8e3c bad4 5c3d daaf cebd
00000130: 4243 a53d 13df babd a68e 40bd f955 273d
00000140: 1ed5 693c c90e dbbd f542 9c3d bb2b bebc
00000150: 6767 6a3c b316 9bbd f6a2 98bc f454 0cbd
00000160: b8f4 24bd 3eea fd3d 42b7 dd3d 1f02 d83d
00000170: b4a8 39bd e4f0 2d3d 007f 8ebd 8051 b53d
00000180: bff6 35bd 9c00 80bd 6e1f f73d b369 b9bd
00000190: da5b 233d b818 113d e3aa 0c3d 2ae6 bebd
000001a0: feeb 95bd e6a8 d83c 0cd6 a3bb ea0c d8bc
000001b0: 230c b23d 2e7d 023e 28ff ee3b 36a7 b7bd
000001c0: 7dbb f73d 5822 79bd 98d9 ac3d bbbc 973d
000001d0: ba33 2fbd d5ef eabd e806 a93d cd11 f23d
000001e0: 595a 93bd 4084 acbd 652f 8abb 2eb1 393d
000001f0: 033f b13d d0b7 c63d a154 8cbc cdd6 b03d
00000200: 238a 47bd ae83 35bd 774b 26bd e4b6 8ebd
00000210: 7c68 d73b 0e6e 043d ee9d 2cbd 2a18 583d
00000220: d7c5 a0bc d245 fcbd 70dd 9abd 6e82 b0bd
00000230: 7caf 98bd 6193 2ebd a27b b8bd 9ad6 8dbd
00000240: 3667 1e3d ca60 08bd e489 5bbb c756 7f3d
00000250: 18ab 67bd effb ef3d a7be ddbb fa77 293d
00000260: 732c e23d c0e5 d13c e1ef acbd d7a2 0ebd
00000270: 22e3 3cbd 28dc 053d b190 3e3d 4432 0e3d
00000280: c30f 063d fe1d 9b3d 2e45 603d cd67 ac3d
00000290: 8d90 6a3d a708 913d a96e 1a3d cebc c1bd
000002a0: 326a da3d 1cbd 253d 080d aa3d 07bb 57bc
000002b0: 27f5 5f3d fe73 e93d 8e21 123d 21f3 cebc
000002c0: 84e3 d2bd 89c6 8c3d 4e7f c5bd d082 df3c
000002d0: 85c2 d0bd 3c97 f7bc 617f dbbd fe1e e03d
000002e0: 5d78 04be a300 d6bd 8ab3 7e3b 84d4 53bd
000002f0: ba8b 5a3b 1dde 9b3d 1844 0f3d 83d3 863a
00000300: ced7 ddbc 3396 9ebd bf1b 5dbd 7da4 4d3d
00000310: a1f9 a33d 2933 9fbd 89ad a13d 3a11 ccbc
00000320: 33c6 5d3d 1d21 87bd dc1a 0f3d a4e4 b53d
00000330: 940f b7bd 9416 65bd 8998 c33d 385d f3bc
00000340: 798c 4b3d aac3 ccbd f45d adbb 131e c73d
00000350: 46f7 933d 2294 f63d ef22 3b3d ee60 c53d
00000360: cd83 c5bd 7124 b53d 66f3 69bd cd1d acbd
00000370: 8f6c 253d a8dd 943d 4da4 88bd 3ade 17bd
00000380: 381c ff3c 15cc 083e 43d9 e43d 6bb9 763d
00000390: 83d2 ea3c 7d14 fd3d b2c4 af3d 6871 a73d
000003a0: 1858 b5bd cd30 933d c348 56bb 2d14 903d
000003b0: 0bb1 883d fbde d4bd ff81 24bd eb3f 133c
000003c0: 693b 40bd b9dd b9bd a7c2 ac3d dcdd 42bc
000003d0: 0871 8cbc 40a0 973d 46b4 c53d 465f 84bd
000003e0: 1872 5a3d 4f3c 71bd d6c7 8e3c 5d97 5e3c
000003f0: e3a2 5dbd 25c9 d23c b3b3 4c3d 724e 93bd
0.073275566 0.11434273 0.031100811 -0.08012941 0.07579815 0.081366144 -0.020472484 0.04959238
0.095131986 -0.021968752 -0.03562618 0.05271741 0.049675487 -0.008371913 -0.09483537 0.08803419
-0.08062214 0.04037351 0.12858777 0.049211245 0.11736786 0.008455802 0.106167294 -0.07659663
0.044271898 -0.020358162 0.060167227 -0.10087696 -0.045522396 0.12614931 0.06002084 -0.018890493
-0.017842472 -0.11286921 0.1410799 0.010581729 -0.010117686 0.05476674 -0.0833559 -0.008916061
-0.10294955 0.07175455 0.037809547 -0.09824195 0.038041014 -0.11675638 0.030468274 0.014702161
0.09156519 0.038965747 0.06428086 -0.049667433 -0.061788887 -0.011229337 0.10158333 0.079444185
-0.022039944 0.06204326 -0.1116339 -0.100251816 0.026468845 0.06344224 -0.09694792 0.099901795
-0.078315295 0.07075133 0.03486165 -0.06892887 0.081013344 0.021141209 0.067750506 0.071686484
-0.021714428 0.017350974 0.05391381 -0.10092135 0.08069469 -0.09124579 -0.04701104 0.040853474
0.0142720025 -0.106961794 0.076299585 -0.023214212 0.01430688 -0.07572689 -0.018632393 -0.034260705
-0.040272444 0.12398194 0.10825969 0.105472796 -0.045326903 0.04246606 -0.06957817 0.088534355
-0.04442477 -0.06250116 0.120665416 -0.09053364 0.03988252 0.035423964 0.034342658 -0.09321244
-0.073204026 0.026447725 -0.0049998816 -0.026373345 0.08693721 0.12743065 0.0072936006 -0.0896744
0.120963074 -0.06082377 0.0843994 0.07409044 -0.04277394 -0.114715256 0.082532704 0.118198015
-0.07194967 -0.08423662 -0.0042170756 0.045334987 0.08654597 0.09703028 -0.017130198 0.0863472
-0.04871572 -0.044315033 -0.040599313 -0.06968477 0.006573735 0.03233152 -0.0421428 0.05275742
-0.019625587 -0.12318005 -0.07561767 -0.086186275 -0.07455346 -0.04262102 -0.09007956 -0.069256976
0.03867265 -0.03329543 -0.0033498937 0.062338617 -0.056559652 0.117179744 -0.0067671123 0.041374184
0.11043634 0.025622249 -0.08444191 -0.034823265 -0.04611505 0.03268066 0.046524707 0.034715906
0.032729875 0.0757408 0.054753475 0.08418236 0.05726676 0.070817284 0.03770319 -0.0945984
0.106647864 0.040463552 0.08303267 -0.013167149 0.054677155 0.11399077 0.03567653 -0.025262417
-0.102973014 0.06873805 -0.09643422 0.027284056 -0.10193352 -0.030223481 -0.10717655 0.10943411
-0.1293654 -0.1044934 0.0038864338 -0.051716343 0.0033347444 0.07610724 0.03497705 0.0010286424
-0.027080443 -0.07743492 -0.05398154 0.050205696 0.08006597 -0.0777343 0.07894427 -0.024910558
0.054144096 -0.06598113 0.034937724 0.088815 -0.08938518 -0.055929735 0.09550578 -0.029707536
0.049694512 -0.099982575 -0.005290741 0.09722533 0.07224898 0.12039973 0.045687612 0.096376285
-0.0964428 0.08844841 -0.05711689 -0.084041215 0.040386733 0.0726884 -0.06671963 -0.037077166
0.031141385 0.13359101 0.11174252 0.060235422 0.028664833 0.123574235 0.085824385 0.081759274
-0.08854693 0.071870424 -0.0032697178 0.07035098 0.06674393 -0.10394093 -0.040163036 0.008987407
-0.046931658 -0.09075493 0.084355645 -0.011893716 -0.017143741 0.07403612 0.09653525 -0.064634845
0.053331465 -0.058895405 0.017429274 0.0135858925 -0.05411042 0.025730679 0.049976062 -0.07192697
